TangConv_AtlasNet(
  (encoder): TangentConv(
    (conv_11): Conv2d(7, 32, kernel_size=(1, 9), stride=(1, 1))
    (conv_12): Conv2d(32, 32, kernel_size=(1, 9), stride=(1, 1))
    (conv_21): Conv2d(33, 64, kernel_size=(1, 9), stride=(1, 1))
    (conv_22): Conv2d(64, 64, kernel_size=(1, 9), stride=(1, 1))
    (conv_latent): Conv2d(64, 1, kernel_size=(1, 1), stride=(1, 1))
  )
  (encoderlin): Linear(in_features=1250, out_features=1024, bias=True)
  (encoderbn): BatchNorm1d(1024, eps=1e-05, momentum=0.1, affine=True, track_running_stats=True)
  (decoder): ModuleList(
    (0): PointGenCon(
      (conv1): Conv1d(1026, 1026, kernel_size=(1,), stride=(1,))
      (conv2): Conv1d(1026, 513, kernel_size=(1,), stride=(1,))
      (conv22): Conv1d(513, 513, kernel_size=(1,), stride=(1,))
      (conv3): Conv1d(513, 256, kernel_size=(1,), stride=(1,))
      (conv32): Conv1d(256, 256, kernel_size=(1,), stride=(1,))
      (conv4): Conv1d(256, 3, kernel_size=(1,), stride=(1,))
      (th): Tanh()
      (bn1): BatchNorm1d(1026, eps=1e-05, momentum=0.1, affine=True, track_running_stats=True)
      (bn2): BatchNorm1d(513, eps=1e-05, momentum=0.1, affine=True, track_running_stats=True)
      (bn3): BatchNorm1d(256, eps=1e-05, momentum=0.1, affine=True, track_running_stats=True)
    )
    (1): PointGenCon(
      (conv1): Conv1d(1026, 1026, kernel_size=(1,), stride=(1,))
      (conv2): Conv1d(1026, 513, kernel_size=(1,), stride=(1,))
      (conv22): Conv1d(513, 513, kernel_size=(1,), stride=(1,))
      (conv3): Conv1d(513, 256, kernel_size=(1,), stride=(1,))
      (conv32): Conv1d(256, 256, kernel_size=(1,), stride=(1,))
      (conv4): Conv1d(256, 3, kernel_size=(1,), stride=(1,))
      (th): Tanh()
      (bn1): BatchNorm1d(1026, eps=1e-05, momentum=0.1, affine=True, track_running_stats=True)
      (bn2): BatchNorm1d(513, eps=1e-05, momentum=0.1, affine=True, track_running_stats=True)
      (bn3): BatchNorm1d(256, eps=1e-05, momentum=0.1, affine=True, track_running_stats=True)
    )
    (2): PointGenCon(
      (conv1): Conv1d(1026, 1026, kernel_size=(1,), stride=(1,))
      (conv2): Conv1d(1026, 513, kernel_size=(1,), stride=(1,))
      (conv22): Conv1d(513, 513, kernel_size=(1,), stride=(1,))
      (conv3): Conv1d(513, 256, kernel_size=(1,), stride=(1,))
      (conv32): Conv1d(256, 256, kernel_size=(1,), stride=(1,))
      (conv4): Conv1d(256, 3, kernel_size=(1,), stride=(1,))
      (th): Tanh()
      (bn1): BatchNorm1d(1026, eps=1e-05, momentum=0.1, affine=True, track_running_stats=True)
      (bn2): BatchNorm1d(513, eps=1e-05, momentum=0.1, affine=True, track_running_stats=True)
      (bn3): BatchNorm1d(256, eps=1e-05, momentum=0.1, affine=True, track_running_stats=True)
    )
    (3): PointGenCon(
      (conv1): Conv1d(1026, 1026, kernel_size=(1,), stride=(1,))
      (conv2): Conv1d(1026, 513, kernel_size=(1,), stride=(1,))
      (conv22): Conv1d(513, 513, kernel_size=(1,), stride=(1,))
      (conv3): Conv1d(513, 256, kernel_size=(1,), stride=(1,))
      (conv32): Conv1d(256, 256, kernel_size=(1,), stride=(1,))
      (conv4): Conv1d(256, 3, kernel_size=(1,), stride=(1,))
      (th): Tanh()
      (bn1): BatchNorm1d(1026, eps=1e-05, momentum=0.1, affine=True, track_running_stats=True)
      (bn2): BatchNorm1d(513, eps=1e-05, momentum=0.1, affine=True, track_running_stats=True)
      (bn3): BatchNorm1d(256, eps=1e-05, momentum=0.1, affine=True, track_running_stats=True)
    )
    (4): PointGenCon(
      (conv1): Conv1d(1026, 1026, kernel_size=(1,), stride=(1,))
      (conv2): Conv1d(1026, 513, kernel_size=(1,), stride=(1,))
      (conv22): Conv1d(513, 513, kernel_size=(1,), stride=(1,))
      (conv3): Conv1d(513, 256, kernel_size=(1,), stride=(1,))
      (conv32): Conv1d(256, 256, kernel_size=(1,), stride=(1,))
      (conv4): Conv1d(256, 3, kernel_size=(1,), stride=(1,))
      (th): Tanh()
      (bn1): BatchNorm1d(1026, eps=1e-05, momentum=0.1, affine=True, track_running_stats=True)
      (bn2): BatchNorm1d(513, eps=1e-05, momentum=0.1, affine=True, track_running_stats=True)
      (bn3): BatchNorm1d(256, eps=1e-05, momentum=0.1, affine=True, track_running_stats=True)
    )
    (5): PointGenCon(
      (conv1): Conv1d(1026, 1026, kernel_size=(1,), stride=(1,))
      (conv2): Conv1d(1026, 513, kernel_size=(1,), stride=(1,))
      (conv22): Conv1d(513, 513, kernel_size=(1,), stride=(1,))
      (conv3): Conv1d(513, 256, kernel_size=(1,), stride=(1,))
      (conv32): Conv1d(256, 256, kernel_size=(1,), stride=(1,))
      (conv4): Conv1d(256, 3, kernel_size=(1,), stride=(1,))
      (th): Tanh()
      (bn1): BatchNorm1d(1026, eps=1e-05, momentum=0.1, affine=True, track_running_stats=True)
      (bn2): BatchNorm1d(513, eps=1e-05, momentum=0.1, affine=True, track_running_stats=True)
      (bn3): BatchNorm1d(256, eps=1e-05, momentum=0.1, affine=True, track_running_stats=True)
    )
    (6): PointGenCon(
      (conv1): Conv1d(1026, 1026, kernel_size=(1,), stride=(1,))
      (conv2): Conv1d(1026, 513, kernel_size=(1,), stride=(1,))
      (conv22): Conv1d(513, 513, kernel_size=(1,), stride=(1,))
      (conv3): Conv1d(513, 256, kernel_size=(1,), stride=(1,))
      (conv32): Conv1d(256, 256, kernel_size=(1,), stride=(1,))
      (conv4): Conv1d(256, 3, kernel_size=(1,), stride=(1,))
      (th): Tanh()
      (bn1): BatchNorm1d(1026, eps=1e-05, momentum=0.1, affine=True, track_running_stats=True)
      (bn2): BatchNorm1d(513, eps=1e-05, momentum=0.1, affine=True, track_running_stats=True)
      (bn3): BatchNorm1d(256, eps=1e-05, momentum=0.1, affine=True, track_running_stats=True)
    )
    (7): PointGenCon(
      (conv1): Conv1d(1026, 1026, kernel_size=(1,), stride=(1,))
      (conv2): Conv1d(1026, 513, kernel_size=(1,), stride=(1,))
      (conv22): Conv1d(513, 513, kernel_size=(1,), stride=(1,))
      (conv3): Conv1d(513, 256, kernel_size=(1,), stride=(1,))
      (conv32): Conv1d(256, 256, kernel_size=(1,), stride=(1,))
      (conv4): Conv1d(256, 3, kernel_size=(1,), stride=(1,))
      (th): Tanh()
      (bn1): BatchNorm1d(1026, eps=1e-05, momentum=0.1, affine=True, track_running_stats=True)
      (bn2): BatchNorm1d(513, eps=1e-05, momentum=0.1, affine=True, track_running_stats=True)
      (bn3): BatchNorm1d(256, eps=1e-05, momentum=0.1, affine=True, track_running_stats=True)
    )
    (8): PointGenCon(
      (conv1): Conv1d(1026, 1026, kernel_size=(1,), stride=(1,))
      (conv2): Conv1d(1026, 513, kernel_size=(1,), stride=(1,))
      (conv22): Conv1d(513, 513, kernel_size=(1,), stride=(1,))
      (conv3): Conv1d(513, 256, kernel_size=(1,), stride=(1,))
      (conv32): Conv1d(256, 256, kernel_size=(1,), stride=(1,))
      (conv4): Conv1d(256, 3, kernel_size=(1,), stride=(1,))
      (th): Tanh()
      (bn1): BatchNorm1d(1026, eps=1e-05, momentum=0.1, affine=True, track_running_stats=True)
      (bn2): BatchNorm1d(513, eps=1e-05, momentum=0.1, affine=True, track_running_stats=True)
      (bn3): BatchNorm1d(256, eps=1e-05, momentum=0.1, affine=True, track_running_stats=True)
    )
    (9): PointGenCon(
      (conv1): Conv1d(1026, 1026, kernel_size=(1,), stride=(1,))
      (conv2): Conv1d(1026, 513, kernel_size=(1,), stride=(1,))
      (conv22): Conv1d(513, 513, kernel_size=(1,), stride=(1,))
      (conv3): Conv1d(513, 256, kernel_size=(1,), stride=(1,))
      (conv32): Conv1d(256, 256, kernel_size=(1,), stride=(1,))
      (conv4): Conv1d(256, 3, kernel_size=(1,), stride=(1,))
      (th): Tanh()
      (bn1): BatchNorm1d(1026, eps=1e-05, momentum=0.1, affine=True, track_running_stats=True)
      (bn2): BatchNorm1d(513, eps=1e-05, momentum=0.1, affine=True, track_running_stats=True)
      (bn3): BatchNorm1d(256, eps=1e-05, momentum=0.1, affine=True, track_running_stats=True)
    )
    (10): PointGenCon(
      (conv1): Conv1d(1026, 1026, kernel_size=(1,), stride=(1,))
      (conv2): Conv1d(1026, 513, kernel_size=(1,), stride=(1,))
      (conv22): Conv1d(513, 513, kernel_size=(1,), stride=(1,))
      (conv3): Conv1d(513, 256, kernel_size=(1,), stride=(1,))
      (conv32): Conv1d(256, 256, kernel_size=(1,), stride=(1,))
      (conv4): Conv1d(256, 3, kernel_size=(1,), stride=(1,))
      (th): Tanh()
      (bn1): BatchNorm1d(1026, eps=1e-05, momentum=0.1, affine=True, track_running_stats=True)
      (bn2): BatchNorm1d(513, eps=1e-05, momentum=0.1, affine=True, track_running_stats=True)
      (bn3): BatchNorm1d(256, eps=1e-05, momentum=0.1, affine=True, track_running_stats=True)
    )
    (11): PointGenCon(
      (conv1): Conv1d(1026, 1026, kernel_size=(1,), stride=(1,))
      (conv2): Conv1d(1026, 513, kernel_size=(1,), stride=(1,))
      (conv22): Conv1d(513, 513, kernel_size=(1,), stride=(1,))
      (conv3): Conv1d(513, 256, kernel_size=(1,), stride=(1,))
      (conv32): Conv1d(256, 256, kernel_size=(1,), stride=(1,))
      (conv4): Conv1d(256, 3, kernel_size=(1,), stride=(1,))
      (th): Tanh()
      (bn1): BatchNorm1d(1026, eps=1e-05, momentum=0.1, affine=True, track_running_stats=True)
      (bn2): BatchNorm1d(513, eps=1e-05, momentum=0.1, affine=True, track_running_stats=True)
      (bn3): BatchNorm1d(256, eps=1e-05, momentum=0.1, affine=True, track_running_stats=True)
    )
    (12): PointGenCon(
      (conv1): Conv1d(1026, 1026, kernel_size=(1,), stride=(1,))
      (conv2): Conv1d(1026, 513, kernel_size=(1,), stride=(1,))
      (conv22): Conv1d(513, 513, kernel_size=(1,), stride=(1,))
      (conv3): Conv1d(513, 256, kernel_size=(1,), stride=(1,))
      (conv32): Conv1d(256, 256, kernel_size=(1,), stride=(1,))
      (conv4): Conv1d(256, 3, kernel_size=(1,), stride=(1,))
      (th): Tanh()
      (bn1): BatchNorm1d(1026, eps=1e-05, momentum=0.1, affine=True, track_running_stats=True)
      (bn2): BatchNorm1d(513, eps=1e-05, momentum=0.1, affine=True, track_running_stats=True)
      (bn3): BatchNorm1d(256, eps=1e-05, momentum=0.1, affine=True, track_running_stats=True)
    )
    (13): PointGenCon(
      (conv1): Conv1d(1026, 1026, kernel_size=(1,), stride=(1,))
      (conv2): Conv1d(1026, 513, kernel_size=(1,), stride=(1,))
      (conv22): Conv1d(513, 513, kernel_size=(1,), stride=(1,))
      (conv3): Conv1d(513, 256, kernel_size=(1,), stride=(1,))
      (conv32): Conv1d(256, 256, kernel_size=(1,), stride=(1,))
      (conv4): Conv1d(256, 3, kernel_size=(1,), stride=(1,))
      (th): Tanh()
      (bn1): BatchNorm1d(1026, eps=1e-05, momentum=0.1, affine=True, track_running_stats=True)
      (bn2): BatchNorm1d(513, eps=1e-05, momentum=0.1, affine=True, track_running_stats=True)
      (bn3): BatchNorm1d(256, eps=1e-05, momentum=0.1, affine=True, track_running_stats=True)
    )
    (14): PointGenCon(
      (conv1): Conv1d(1026, 1026, kernel_size=(1,), stride=(1,))
      (conv2): Conv1d(1026, 513, kernel_size=(1,), stride=(1,))
      (conv22): Conv1d(513, 513, kernel_size=(1,), stride=(1,))
      (conv3): Conv1d(513, 256, kernel_size=(1,), stride=(1,))
      (conv32): Conv1d(256, 256, kernel_size=(1,), stride=(1,))
      (conv4): Conv1d(256, 3, kernel_size=(1,), stride=(1,))
      (th): Tanh()
      (bn1): BatchNorm1d(1026, eps=1e-05, momentum=0.1, affine=True, track_running_stats=True)
      (bn2): BatchNorm1d(513, eps=1e-05, momentum=0.1, affine=True, track_running_stats=True)
      (bn3): BatchNorm1d(256, eps=1e-05, momentum=0.1, affine=True, track_running_stats=True)
    )
    (15): PointGenCon(
      (conv1): Conv1d(1026, 1026, kernel_size=(1,), stride=(1,))
      (conv2): Conv1d(1026, 513, kernel_size=(1,), stride=(1,))
      (conv22): Conv1d(513, 513, kernel_size=(1,), stride=(1,))
      (conv3): Conv1d(513, 256, kernel_size=(1,), stride=(1,))
      (conv32): Conv1d(256, 256, kernel_size=(1,), stride=(1,))
      (conv4): Conv1d(256, 3, kernel_size=(1,), stride=(1,))
      (th): Tanh()
      (bn1): BatchNorm1d(1026, eps=1e-05, momentum=0.1, affine=True, track_running_stats=True)
      (bn2): BatchNorm1d(513, eps=1e-05, momentum=0.1, affine=True, track_running_stats=True)
      (bn3): BatchNorm1d(256, eps=1e-05, momentum=0.1, affine=True, track_running_stats=True)
    )
    (16): PointGenCon(
      (conv1): Conv1d(1026, 1026, kernel_size=(1,), stride=(1,))
      (conv2): Conv1d(1026, 513, kernel_size=(1,), stride=(1,))
      (conv22): Conv1d(513, 513, kernel_size=(1,), stride=(1,))
      (conv3): Conv1d(513, 256, kernel_size=(1,), stride=(1,))
      (conv32): Conv1d(256, 256, kernel_size=(1,), stride=(1,))
      (conv4): Conv1d(256, 3, kernel_size=(1,), stride=(1,))
      (th): Tanh()
      (bn1): BatchNorm1d(1026, eps=1e-05, momentum=0.1, affine=True, track_running_stats=True)
      (bn2): BatchNorm1d(513, eps=1e-05, momentum=0.1, affine=True, track_running_stats=True)
      (bn3): BatchNorm1d(256, eps=1e-05, momentum=0.1, affine=True, track_running_stats=True)
    )
    (17): PointGenCon(
      (conv1): Conv1d(1026, 1026, kernel_size=(1,), stride=(1,))
      (conv2): Conv1d(1026, 513, kernel_size=(1,), stride=(1,))
      (conv22): Conv1d(513, 513, kernel_size=(1,), stride=(1,))
      (conv3): Conv1d(513, 256, kernel_size=(1,), stride=(1,))
      (conv32): Conv1d(256, 256, kernel_size=(1,), stride=(1,))
      (conv4): Conv1d(256, 3, kernel_size=(1,), stride=(1,))
      (th): Tanh()
      (bn1): BatchNorm1d(1026, eps=1e-05, momentum=0.1, affine=True, track_running_stats=True)
      (bn2): BatchNorm1d(513, eps=1e-05, momentum=0.1, affine=True, track_running_stats=True)
      (bn3): BatchNorm1d(256, eps=1e-05, momentum=0.1, affine=True, track_running_stats=True)
    )
    (18): PointGenCon(
      (conv1): Conv1d(1026, 1026, kernel_size=(1,), stride=(1,))
      (conv2): Conv1d(1026, 513, kernel_size=(1,), stride=(1,))
      (conv22): Conv1d(513, 513, kernel_size=(1,), stride=(1,))
      (conv3): Conv1d(513, 256, kernel_size=(1,), stride=(1,))
      (conv32): Conv1d(256, 256, kernel_size=(1,), stride=(1,))
      (conv4): Conv1d(256, 3, kernel_size=(1,), stride=(1,))
      (th): Tanh()
      (bn1): BatchNorm1d(1026, eps=1e-05, momentum=0.1, affine=True, track_running_stats=True)
      (bn2): BatchNorm1d(513, eps=1e-05, momentum=0.1, affine=True, track_running_stats=True)
      (bn3): BatchNorm1d(256, eps=1e-05, momentum=0.1, affine=True, track_running_stats=True)
    )
    (19): PointGenCon(
      (conv1): Conv1d(1026, 1026, kernel_size=(1,), stride=(1,))
      (conv2): Conv1d(1026, 513, kernel_size=(1,), stride=(1,))
      (conv22): Conv1d(513, 513, kernel_size=(1,), stride=(1,))
      (conv3): Conv1d(513, 256, kernel_size=(1,), stride=(1,))
      (conv32): Conv1d(256, 256, kernel_size=(1,), stride=(1,))
      (conv4): Conv1d(256, 3, kernel_size=(1,), stride=(1,))
      (th): Tanh()
      (bn1): BatchNorm1d(1026, eps=1e-05, momentum=0.1, affine=True, track_running_stats=True)
      (bn2): BatchNorm1d(513, eps=1e-05, momentum=0.1, affine=True, track_running_stats=True)
      (bn3): BatchNorm1d(256, eps=1e-05, momentum=0.1, affine=True, track_running_stats=True)
    )
    (20): PointGenCon(
      (conv1): Conv1d(1026, 1026, kernel_size=(1,), stride=(1,))
      (conv2): Conv1d(1026, 513, kernel_size=(1,), stride=(1,))
      (conv22): Conv1d(513, 513, kernel_size=(1,), stride=(1,))
      (conv3): Conv1d(513, 256, kernel_size=(1,), stride=(1,))
      (conv32): Conv1d(256, 256, kernel_size=(1,), stride=(1,))
      (conv4): Conv1d(256, 3, kernel_size=(1,), stride=(1,))
      (th): Tanh()
      (bn1): BatchNorm1d(1026, eps=1e-05, momentum=0.1, affine=True, track_running_stats=True)
      (bn2): BatchNorm1d(513, eps=1e-05, momentum=0.1, affine=True, track_running_stats=True)
      (bn3): BatchNorm1d(256, eps=1e-05, momentum=0.1, affine=True, track_running_stats=True)
    )
    (21): PointGenCon(
      (conv1): Conv1d(1026, 1026, kernel_size=(1,), stride=(1,))
      (conv2): Conv1d(1026, 513, kernel_size=(1,), stride=(1,))
      (conv22): Conv1d(513, 513, kernel_size=(1,), stride=(1,))
      (conv3): Conv1d(513, 256, kernel_size=(1,), stride=(1,))
      (conv32): Conv1d(256, 256, kernel_size=(1,), stride=(1,))
      (conv4): Conv1d(256, 3, kernel_size=(1,), stride=(1,))
      (th): Tanh()
      (bn1): BatchNorm1d(1026, eps=1e-05, momentum=0.1, affine=True, track_running_stats=True)
      (bn2): BatchNorm1d(513, eps=1e-05, momentum=0.1, affine=True, track_running_stats=True)
      (bn3): BatchNorm1d(256, eps=1e-05, momentum=0.1, affine=True, track_running_stats=True)
    )
    (22): PointGenCon(
      (conv1): Conv1d(1026, 1026, kernel_size=(1,), stride=(1,))
      (conv2): Conv1d(1026, 513, kernel_size=(1,), stride=(1,))
      (conv22): Conv1d(513, 513, kernel_size=(1,), stride=(1,))
      (conv3): Conv1d(513, 256, kernel_size=(1,), stride=(1,))
      (conv32): Conv1d(256, 256, kernel_size=(1,), stride=(1,))
      (conv4): Conv1d(256, 3, kernel_size=(1,), stride=(1,))
      (th): Tanh()
      (bn1): BatchNorm1d(1026, eps=1e-05, momentum=0.1, affine=True, track_running_stats=True)
      (bn2): BatchNorm1d(513, eps=1e-05, momentum=0.1, affine=True, track_running_stats=True)
      (bn3): BatchNorm1d(256, eps=1e-05, momentum=0.1, affine=True, track_running_stats=True)
    )
    (23): PointGenCon(
      (conv1): Conv1d(1026, 1026, kernel_size=(1,), stride=(1,))
      (conv2): Conv1d(1026, 513, kernel_size=(1,), stride=(1,))
      (conv22): Conv1d(513, 513, kernel_size=(1,), stride=(1,))
      (conv3): Conv1d(513, 256, kernel_size=(1,), stride=(1,))
      (conv32): Conv1d(256, 256, kernel_size=(1,), stride=(1,))
      (conv4): Conv1d(256, 3, kernel_size=(1,), stride=(1,))
      (th): Tanh()
      (bn1): BatchNorm1d(1026, eps=1e-05, momentum=0.1, affine=True, track_running_stats=True)
      (bn2): BatchNorm1d(513, eps=1e-05, momentum=0.1, affine=True, track_running_stats=True)
      (bn3): BatchNorm1d(256, eps=1e-05, momentum=0.1, affine=True, track_running_stats=True)
    )
    (24): PointGenCon(
      (conv1): Conv1d(1026, 1026, kernel_size=(1,), stride=(1,))
      (conv2): Conv1d(1026, 513, kernel_size=(1,), stride=(1,))
      (conv22): Conv1d(513, 513, kernel_size=(1,), stride=(1,))
      (conv3): Conv1d(513, 256, kernel_size=(1,), stride=(1,))
      (conv32): Conv1d(256, 256, kernel_size=(1,), stride=(1,))
      (conv4): Conv1d(256, 3, kernel_size=(1,), stride=(1,))
      (th): Tanh()
      (bn1): BatchNorm1d(1026, eps=1e-05, momentum=0.1, affine=True, track_running_stats=True)
      (bn2): BatchNorm1d(513, eps=1e-05, momentum=0.1, affine=True, track_running_stats=True)
      (bn3): BatchNorm1d(256, eps=1e-05, momentum=0.1, affine=True, track_running_stats=True)
    )
  )
)
json_stats: {"train_loss": 0.025151721617014327, "val_loss": 0.01227824997137204, "epoch": 0, "lr": 0.005, "super_points": 2500, "bestval": 10, "airplane": 0.008252417931974442, "bench": 0.009916119882851428, "cabinet": 0.01812178100807353, "car": 0.013488651970905353, "chair": 0.011985109832048155, "monitor": 0.01673415638806007, "lamp": 0.01614176673158509, "speaker": 0, "firearm": 0, "couch": 0, "table": 0, "cellphone": 0, "watercraft": 0}
…
